…
# Autoencoder: Successfully preprocessed 1000 genes and 1182 cells.
Namespace(ae_weight_file='AE_weights_inhouse.pth.tar', ae_weights=None, batch_size=256, beta=0.1, cutoff1=0.5, cutoff2=0.0, data_file='./real_datasets/GSE_inhouse.counts.filtered_1000G.H5', embedding_file=-1, encodeLayer1=[64, 32, 12], encodeLayer2=[8], encodeLayer3=[64, 16], fi=0.0001, gamma=0.01, lr=1.0, maxiter=2000, n_clusters=6, n_neighbors=30, prediction_file=-1, pretrain_epochs=400, resolution=0.2, save_dir='results/', sigma1=2.5, sigma2=0.0, tol=0.001, update_interval=1)
scMultiCluster(
  (encoder1): Sequential(
    (0): Linear(in_features=1000, out_features=64, bias=True)
    (1): ReLU()
    (2): Linear(in_features=64, out_features=32, bias=True)
    (3): ReLU()
    (4): Linear(in_features=32, out_features=12, bias=True)
  )
  (decoder1): Sequential(
    (0): Linear(in_features=12, out_features=32, bias=True)
    (1): ReLU()
    (2): Linear(in_features=32, out_features=64, bias=True)
    (3): ReLU()
  )
  (encoder2): Sequential(
    (0): Linear(in_features=10, out_features=8, bias=True)
  )
  (decoder2): Sequential()
  (latent_enc): Sequential(
    (0): Linear(in_features=20, out_features=64, bias=True)
    (1): ReLU()
    (2): Linear(in_features=64, out_features=16, bias=True)
  )
  (latent_dec): Sequential(
    (0): Linear(in_features=16, out_features=64, bias=True)
    (1): ReLU()
    (2): Linear(in_features=64, out_features=20, bias=True)
  )
  (dec_mean1): Sequential(
    (0): Linear(in_features=64, out_features=1000, bias=True)
    (1): MeanAct()
  )
  (dec_disp1): Sequential(
    (0): Linear(in_features=64, out_features=1000, bias=True)
    (1): DispAct()
  )
  (dec_mean2): Sequential(
    (0): Linear(in_features=8, out_features=10, bias=True)
    (1): MeanAct()
  )
  (dec_disp2): Sequential(
    (0): Linear(in_features=8, out_features=10, bias=True)
    (1): DispAct()
  )
  (dec_pi1): Sequential(
    (0): Linear(in_features=64, out_features=1000, bias=True)
    (1): Sigmoid()
  )
  (zinb_loss): ZINBLoss()
  (NBLoss): NBLoss()
  (mse): MSELoss()
)
Pretraining stage
Pretrain epoch [1/1], ZINB loss:0.5823, NB loss:540.0980, latent MSE loss:0.01418302, KL loss:0.00007018
Pretrain epoch [2/1], ZINB loss:0.5738, NB loss:504.8311, latent MSE loss:0.01398240, KL loss:0.00007646
Pretrain epoch [3/1], ZINB loss:0.5432, NB loss:495.0924, latent MSE loss:0.01502173, KL loss:0.00006693
…
